Namespace(batch_size=128, data_aug=False, debug=False, gpu=0, input='../analysis/pack/melspec_mfccs_train.p', lr=0.001, nepochs=1500, save='log/', size=128, test='../analysis/pack/melspec_mfccs_test.p', weight_decay=0)
ARSC_NET(
  (conv1): Conv2d(1, 64, kernel_size=(7, 7), stride=(1, 1), padding=(3, 3), bias=False)
  (conv2): Conv2d(1, 64, kernel_size=(7, 7), stride=(1, 1), padding=(3, 3), bias=False)
  (bn1): BatchNorm2d(64, eps=1e-05, momentum=0.1, affine=True, track_running_stats=True)
  (bn2): BatchNorm2d(64, eps=1e-05, momentum=0.1, affine=True, track_running_stats=True)
  (relu1): ReLU()
  (relu2): ReLU()
  (maxpool1): AdaptiveMaxPool2d(output_size=(64, 64))
  (maxpool2): AdaptiveMaxPool2d(output_size=(64, 64))
  (resattention1): Residual_attention(
    (conv1): Conv2d(64, 32, kernel_size=(3, 3), stride=(1, 1), padding=(1, 1), bias=False)
    (conv2): Conv2d(32, 64, kernel_size=(3, 3), stride=(1, 1), padding=(1, 1), bias=False)
    (conv3): Conv2d(64, 64, kernel_size=(1, 1), stride=(1, 1), bias=False)
    (relu): ReLU()
    (bn): BatchNorm2d(64, eps=1e-05, momentum=0.1, affine=True, track_running_stats=True)
    (attention): Channel_Spatial_Attention(
      (channel): ChannelAttention(
        (avg_pool): AdaptiveAvgPool2d(output_size=1)
        (max_pool): AdaptiveMaxPool2d(output_size=1)
        (fc): Sequential(
          (0): Conv2d(64, 32, kernel_size=(1, 1), stride=(1, 1), bias=False)
          (1): ReLU()
          (2): Conv2d(32, 64, kernel_size=(1, 1), stride=(1, 1), bias=False)
        )
        (sigmoid): Sigmoid()
      )
      (Spatial): SpatialAttention(
        (conv1): Conv2d(2, 1, kernel_size=(7, 7), stride=(1, 1), padding=(3, 3), bias=False)
        (sigmoid): Sigmoid()
      )
    )
  )
  (resattention2): Residual_attention(
    (conv1): Conv2d(64, 32, kernel_size=(3, 3), stride=(1, 1), padding=(1, 1), bias=False)
    (conv2): Conv2d(32, 64, kernel_size=(3, 3), stride=(1, 1), padding=(1, 1), bias=False)
    (conv3): Conv2d(64, 64, kernel_size=(1, 1), stride=(1, 1), bias=False)
    (relu): ReLU()
    (bn): BatchNorm2d(64, eps=1e-05, momentum=0.1, affine=True, track_running_stats=True)
    (attention): Channel_Spatial_Attention(
      (channel): ChannelAttention(
        (avg_pool): AdaptiveAvgPool2d(output_size=1)
        (max_pool): AdaptiveMaxPool2d(output_size=1)
        (fc): Sequential(
          (0): Conv2d(64, 32, kernel_size=(1, 1), stride=(1, 1), bias=False)
          (1): ReLU()
          (2): Conv2d(32, 64, kernel_size=(1, 1), stride=(1, 1), bias=False)
        )
        (sigmoid): Sigmoid()
      )
      (Spatial): SpatialAttention(
        (conv1): Conv2d(2, 1, kernel_size=(7, 7), stride=(1, 1), padding=(3, 3), bias=False)
        (sigmoid): Sigmoid()
      )
    )
  )
  (attention): Channel_Spatial_Attention(
    (channel): ChannelAttention(
      (avg_pool): AdaptiveAvgPool2d(output_size=1)
      (max_pool): AdaptiveMaxPool2d(output_size=1)
      (fc): Sequential(
        (0): Conv2d(128, 64, kernel_size=(1, 1), stride=(1, 1), bias=False)
        (1): ReLU()
        (2): Conv2d(64, 128, kernel_size=(1, 1), stride=(1, 1), bias=False)
      )
      (sigmoid): Sigmoid()
    )
    (Spatial): SpatialAttention(
      (conv1): Conv2d(2, 1, kernel_size=(7, 7), stride=(1, 1), padding=(3, 3), bias=False)
      (sigmoid): Sigmoid()
    )
  )
  (resattention3): Residual_attention(
    (conv1): Conv2d(128, 64, kernel_size=(3, 3), stride=(1, 1), padding=(1, 1), bias=False)
    (conv2): Conv2d(64, 64, kernel_size=(3, 3), stride=(1, 1), padding=(1, 1), bias=False)
    (conv3): Conv2d(128, 64, kernel_size=(1, 1), stride=(1, 1), bias=False)
    (relu): ReLU()
    (bn): BatchNorm2d(64, eps=1e-05, momentum=0.1, affine=True, track_running_stats=True)
    (attention): Channel_Spatial_Attention(
      (channel): ChannelAttention(
        (avg_pool): AdaptiveAvgPool2d(output_size=1)
        (max_pool): AdaptiveMaxPool2d(output_size=1)
        (fc): Sequential(
          (0): Conv2d(64, 32, kernel_size=(1, 1), stride=(1, 1), bias=False)
          (1): ReLU()
          (2): Conv2d(32, 64, kernel_size=(1, 1), stride=(1, 1), bias=False)
        )
        (sigmoid): Sigmoid()
      )
      (Spatial): SpatialAttention(
        (conv1): Conv2d(2, 1, kernel_size=(7, 7), stride=(1, 1), padding=(3, 3), bias=False)
        (sigmoid): Sigmoid()
      )
    )
  )
  (avepool): AdaptiveAvgPool2d(output_size=(1, 1))
  (flat): Flatten()
  (fc): Linear(in_features=64, out_features=4, bias=True)
)
Number of parameters: 236940
epoch:1
Train loss : 1.1723	Train SE : 0.0000	Train SP : 1.0000	Train Score : 0.5000	Train Acc : 0.5015
Val loss : 1.0749	Val SE : 0.0000	Val SP : 1.0000	Val Score : 0.5000	Val Acc : 0.5666
best icbhi score is 0.5000
[[1523    0    0    0]
 [ 645    0    0    0]
 [ 384    0    0    0]
 [ 136    0    0    0]]
epoch:2
Train loss : 1.1509	Train SE : 0.0490	Train SP : 0.9587	Train Score : 0.5039	Train Acc : 0.5059
…
